…
[<tensorflow.python.keras.callbacks.EarlyStopping object at 0x7f33602b2520>, <tensorflow.python.keras.callbacks.ReduceLROnPlateau object at 0x7f33602b2490>, <tensorflow.python.keras.callbacks.ModelCheckpoint object at 0x7f33602b2400>]
===TRAIN MODELS===

run_model
('Training Accuracy mean: ', 0.907008083164692)
('Validation Accuracy mean: ', 0.3136904780752957)
('Training Loss mean: ', 0.3461089637130499)
('Validation Loss mean: ', 1.1477345868945121)
Model: "sequential_1"
_________________________________________________________________
Layer (type)                 Output Shape              Param #   
=================================================================
bidirectional_3 (Bidirection (None, 21, 96)            26880     
_________________________________________________________________
bidirectional_4 (Bidirection (None, 21, 96)            55680     
_________________________________________________________________
bidirectional_5 (Bidirection (None, 21, 96)            55680     
_________________________________________________________________
bidirectional_6 (Bidirection (None, 96)                55680     
_________________________________________________________________
dense_2 (Dense)              (None, 48)                4656      
_________________________________________________________________
batch_normalization_1 (Batch (None, 48)                192       
_________________________________________________________________
dropout_1 (Dropout)          (None, 48)                0         
_________________________________________________________________
dense_3 (Dense)              (None, 1)                 49        
=================================================================
Total params: 198,817
Trainable params: 198,721
Non-trainable params: 96
_________________________________________________________________Finished run_model in 8.2191 secs


            The hyperparameter search is complete. The optimal number of units in the first densely-connected
            layer is 48 and the optimal learning rate for the optimizer
…
