…
[<tensorflow.python.keras.callbacks.EarlyStopping object at 0x7fbafdb05e50>, <tensorflow.python.keras.callbacks.ReduceLROnPlateau object at 0x7fbafdb05e80>, <tensorflow.python.keras.callbacks.ModelCheckpoint object at 0x7fbafdb05f10>]
===TRAIN MODELS===

run_model
('Training Accuracy mean: ', 0.9750952311783783)
('Validation Accuracy mean: ', 0.8715072712622398)
('Training Loss mean: ', 0.3787688516880855)
('Validation Loss mean: ', 0.6531512069800669)
Model: "sequential_10"
_________________________________________________________________
Layer (type)                 Output Shape              Param #   
=================================================================
bidirectional_20 (Bidirectio (None, 23, 256)           459776    
_________________________________________________________________
bidirectional_21 (Bidirectio (None, 23, 128)           164352    
_________________________________________________________________
attention_10 (attention)     (None, 128)               151       
_________________________________________________________________
dense_20 (Dense)             (None, 64)                8256      
_________________________________________________________________
batch_normalization_10 (Batc (None, 64)                256       
_________________________________________________________________
dropout_10 (Dropout)         (None, 64)                0         
_________________________________________________________________
dense_21 (Dense)             (None, 1)                 65        
=================================================================
Total params: 632,856
Trainable params: 632,728
Non-trainable params: 128
_________________________________________________________________Finished run_model in 24.9617 secs


predict
{'self': <propythia_new.src.propythia.deep_ml.DeepML object at 0x7fbb059ad550>, 'x_test': array([[[ 2.10235804e-01,  6.01162255e-01,  2.02857450e-01, ...,
…
