…
[<tensorflow.python.keras.callbacks.EarlyStopping object at 0x7fa4724c6370>, <tensorflow.python.keras.callbacks.ReduceLROnPlateau object at 0x7fa4724221f0>, <tensorflow.python.keras.callbacks.ModelCheckpoint object at 0x7fa4724227c0>]
===TRAIN MODELS===

run_model
('Training Accuracy mean: ', 0.9769105331317799)
('Validation Accuracy mean: ', 0.9179833716637379)
('Training Loss mean: ', 0.4513161970755538)
('Validation Loss mean: ', 0.6623730605115762)
Model: "sequential"
_________________________________________________________________
Layer (type)                 Output Shape              Param #   
=================================================================
bidirectional (Bidirectional (None, 23, 256)           1442816   
_________________________________________________________________
bidirectional_1 (Bidirection (None, 23, 128)           164352    
_________________________________________________________________
attention (attention)        (None, 128)               151       
_________________________________________________________________
dense (Dense)                (None, 64)                8256      
_________________________________________________________________
batch_normalization (BatchNo (None, 64)                256       
_________________________________________________________________
dropout (Dropout)            (None, 64)                0         
_________________________________________________________________
dense_1 (Dense)              (None, 1)                 65        
=================================================================
Total params: 1,615,896
Trainable params: 1,615,768
Non-trainable params: 128
_________________________________________________________________Finished run_model in 50.5624 secs


predict
{'self': <propythia_new.src.propythia.deep_ml.DeepML object at 0x7fa484140850>, 'x_test': array([[[ 4.78597321e-02, -1.06020039e-03, -8.47319365e-02, ...,
…
