…
[<tensorflow.python.keras.callbacks.EarlyStopping object at 0x7f43fd39d1c0>, <tensorflow.python.keras.callbacks.ReduceLROnPlateau object at 0x7f43fd33bee0>, <tensorflow.python.keras.callbacks.ModelCheckpoint object at 0x7f43fd33b2e0>]
===TRAIN MODELS===

run_model
('Training Accuracy mean: ', 0.8099027394484251)
('Validation Accuracy mean: ', 0.6073964534219928)
('Training Loss mean: ', 0.5464424662865125)
('Validation Loss mean: ', 0.7182901490193146)
Model: "sequential"
_________________________________________________________________
Layer (type)                 Output Shape              Param #   
=================================================================
bidirectional (Bidirectional (None, 22, 256)           154624    
_________________________________________________________________
bidirectional_1 (Bidirection (None, 22, 128)           164352    
_________________________________________________________________
attention (attention)        (None, 128)               150       
_________________________________________________________________
dense (Dense)                (None, 64)                8256      
_________________________________________________________________
batch_normalization (BatchNo (None, 64)                256       
_________________________________________________________________
dropout (Dropout)            (None, 64)                0         
_________________________________________________________________
dense_1 (Dense)              (None, 1)                 65        
=================================================================
Total params: 327,703
Trainable params: 327,575
Non-trainable params: 128
_________________________________________________________________Finished run_model in 44.6177 secs

third_Window21_gap1_TRANSFORMER_facebook_T68M_esm2_t6_8M_UR50D_contact_class_10groupedKFOLD_cluster80_bilstm1
self
x_train
y_train
x_test
y_test
number_classes
…
[<tensorflow.python.keras.callbacks.EarlyStopping object at 0x7f6aa8e9f9d0>, <tensorflow.python.keras.callbacks.ReduceLROnPlateau object at 0x7f6aa8eac070>, <tensorflow.python.keras.callbacks.ModelCheckpoint object at 0x7f6aa8eacfa0>]
===TRAIN MODELS===

run_model
('Training Accuracy mean: ', 0.6406006678458183)
('Validation Accuracy mean: ', 0.039205955401543646)
('Training Loss mean: ', 0.7744060754776001)
('Validation Loss mean: ', 0.9777394340884301)
Model: "sequential"
_________________________________________________________________
Layer (type)                 Output Shape              Param #   
=================================================================
bidirectional (Bidirectional (None, 21, 256)           153600    
_________________________________________________________________
bidirectional_1 (Bidirection (None, 21, 128)           164352    
_________________________________________________________________
attention (attention)        (None, 128)               149       
_________________________________________________________________
dense (Dense)                (None, 64)                8256      
_________________________________________________________________
batch_normalization (BatchNo (None, 64)                256       
_________________________________________________________________
dropout (Dropout)            (None, 64)                0         
_________________________________________________________________
dense_1 (Dense)              (None, 1)                 65        
=================================================================
Total params: 326,678
Trainable params: 326,550
Non-trainable params: 128
_________________________________________________________________Finished run_model in 13.9343 secs

third_Window21_gap1_TRANSFORMER_facebook_T68M_esm2_t6_8M_UR50D_contact_class_10groupedKFOLD_cluster80_bilstm1
self
x_train
y_train
x_test
y_test
number_classes
…
[<tensorflow.python.keras.callbacks.EarlyStopping object at 0x7f2a5e5422b0>, <tensorflow.python.keras.callbacks.ReduceLROnPlateau object at 0x7f2a5e2c7880>, <tensorflow.python.keras.callbacks.ModelCheckpoint object at 0x7f2a5e2c71c0>]
===TRAIN MODELS===

run_model
('Training Accuracy mean: ', 0.7711745705455542)
('Validation Accuracy mean: ', 0.11586538472329266)
('Training Loss mean: ', 0.6520896516740322)
('Validation Loss mean: ', 0.9423202220350504)
Model: "sequential"
_________________________________________________________________
Layer (type)                 Output Shape              Param #   
=================================================================
bidirectional (Bidirectional (None, 47, 256)           180224    
_________________________________________________________________
bidirectional_1 (Bidirection (None, 47, 128)           164352    
_________________________________________________________________
attention (attention)        (None, 128)               175       
_________________________________________________________________
dense (Dense)                (None, 64)                8256      
_________________________________________________________________
batch_normalization (BatchNo (None, 64)                256       
_________________________________________________________________
dropout (Dropout)            (None, 64)                0         
_________________________________________________________________
dense_1 (Dense)              (None, 1)                 65        
=================================================================
Total params: 353,328
Trainable params: 353,200
Non-trainable params: 128
_________________________________________________________________Finished run_model in 22.5734 secs

third_Window21_gap1_TRANSFORMER_facebook_T68M_esm2_t6_8M_UR50D_contact_class_10groupedKFOLD_cluster80_bilstm1
self
x_train
y_train
x_test
y_test
number_classes
…
[<tensorflow.python.keras.callbacks.EarlyStopping object at 0x7f50d8bbc2b0>, <tensorflow.python.keras.callbacks.ReduceLROnPlateau object at 0x7f50d88e0250>, <tensorflow.python.keras.callbacks.ModelCheckpoint object at 0x7f50d88e0040>]
===TRAIN MODELS===

run_model
('Training Accuracy mean: ', 0.9624204898922188)
('Validation Accuracy mean: ', 0.9066467558585324)
('Training Loss mean: ', 0.39533365033205276)
('Validation Loss mean: ', 0.6026851505909151)
Model: "sequential"
_________________________________________________________________
Layer (type)                 Output Shape              Param #   
=================================================================
bidirectional (Bidirectional (None, 23, 256)           459776    
_________________________________________________________________
bidirectional_1 (Bidirection (None, 23, 128)           164352    
_________________________________________________________________
attention (attention)        (None, 128)               151       
_________________________________________________________________
dense (Dense)                (None, 64)                8256      
_________________________________________________________________
batch_normalization (BatchNo (None, 64)                256       
_________________________________________________________________
dropout (Dropout)            (None, 64)                0         
_________________________________________________________________
dense_1 (Dense)              (None, 1)                 65        
=================================================================
Total params: 632,856
Trainable params: 632,728
Non-trainable params: 128
_________________________________________________________________Finished run_model in 33.9408 secs

third_Window21_gap1_TRANSFORMER_facebook_T68M_esm2_t6_8M_UR50D_contact_class_10groupedKFOLD_cluster80_bilstm1
self
x_train
y_train
x_test
y_test
number_classes
…
