…
[<tensorflow.python.keras.callbacks.EarlyStopping object at 0x7f31ac2dbfa0>, <tensorflow.python.keras.callbacks.ReduceLROnPlateau object at 0x7f31ac2dbb50>, <tensorflow.python.keras.callbacks.ModelCheckpoint object at 0x7f31ac2db910>]
===TRAIN MODELS===

run_model
('Training Accuracy mean: ', 0.9627698376411344)
('Validation Accuracy mean: ', 0.9632270187139511)
('Training Loss mean: ', 0.19573692701817527)
('Validation Loss mean: ', 0.2357605986478852)
Model: "sequential_1"
_________________________________________________________________
Layer (type)                 Output Shape              Param #   
=================================================================
bidirectional_4 (Bidirection (None, 21, 128)           44032     
_________________________________________________________________
bidirectional_5 (Bidirection (None, 21, 128)           98816     
_________________________________________________________________
bidirectional_6 (Bidirection (None, 21, 128)           98816     
_________________________________________________________________
bidirectional_7 (Bidirection (None, 128)               98816     
_________________________________________________________________
dense_2 (Dense)              (None, 64)                8256      
_________________________________________________________________
batch_normalization_1 (Batch (None, 64)                256       
_________________________________________________________________
dropout_1 (Dropout)          (None, 64)                0         
_________________________________________________________________
dense_3 (Dense)              (None, 1)                 65        
=================================================================
Total params: 349,057
Trainable params: 348,929
Non-trainable params: 128
_________________________________________________________________Finished run_model in 14.2488 secs


            The hyperparameter search is complete. The optimal number of units in the first densely-connected
            layer is 64 and the optimal learning rate for the optimizer
…
