…
[<tensorflow.python.keras.callbacks.EarlyStopping object at 0x7fd7ac2d89d0>, <tensorflow.python.keras.callbacks.ReduceLROnPlateau object at 0x7fd7ac2d83a0>, <tensorflow.python.keras.callbacks.ModelCheckpoint object at 0x7fd7ac2d8670>]
===TRAIN MODELS===

run_model
('Training Accuracy mean: ', 0.9865017502735822)
('Validation Accuracy mean: ', 0.9668285722533861)
('Training Loss mean: ', 0.08444457176404122)
('Validation Loss mean: ', 0.15997274976987869)
Model: "sequential_1"
_________________________________________________________________
Layer (type)                 Output Shape              Param #   
=================================================================
bidirectional_4 (Bidirection (None, 21, 128)           44032     
_________________________________________________________________
bidirectional_5 (Bidirection (None, 21, 128)           98816     
_________________________________________________________________
bidirectional_6 (Bidirection (None, 128)               98816     
_________________________________________________________________
dense_3 (Dense)              (None, 64)                8256      
_________________________________________________________________
batch_normalization_2 (Batch (None, 64)                256       
_________________________________________________________________
dropout_2 (Dropout)          (None, 64)                0         
_________________________________________________________________
dense_4 (Dense)              (None, 64)                4160      
_________________________________________________________________
batch_normalization_3 (Batch (None, 64)                256       
_________________________________________________________________
dropout_3 (Dropout)          (None, 64)                0         
_________________________________________________________________
dense_5 (Dense)              (None, 1)                 65        
=================================================================
Total params: 254,657
Trainable params: 254,401
Non-trainable params: 256
_________________________________________________________________Finished run_model in 210.4431 secs


            The hyperparameter search is complete. The optimal number of units in the first densely-connected
            layer is 64 and the optimal learning rate for the optimizer
…
