…
[<tensorflow.python.keras.callbacks.EarlyStopping object at 0x7f41e822fb80>, <tensorflow.python.keras.callbacks.ReduceLROnPlateau object at 0x7f41e822fbb0>, <tensorflow.python.keras.callbacks.ModelCheckpoint object at 0x7f41e822fc40>]
===TRAIN MODELS===

run_model
('Training Accuracy mean: ', 0.9713719157072214)
('Validation Accuracy mean: ', 0.9550886722711417)
('Training Loss mean: ', 0.13254384799645497)
('Validation Loss mean: ', 0.38348917468236043)
Model: "sequential_10"
_________________________________________________________________
Layer (type)                 Output Shape              Param #   
=================================================================
bidirectional_20 (Bidirectio (None, 19, 128)           84480     
_________________________________________________________________
bidirectional_21 (Bidirectio (None, 19, 64)            41216     
_________________________________________________________________
attention_10 (attention)     (None, 64)                83        
_________________________________________________________________
dense_20 (Dense)             (None, 64)                4160      
_________________________________________________________________
batch_normalization_10 (Batc (None, 64)                256       
_________________________________________________________________
dropout_10 (Dropout)         (None, 64)                0         
_________________________________________________________________
dense_21 (Dense)             (None, 1)                 65        
=================================================================
Total params: 130,260
Trainable params: 130,132
Non-trainable params: 128
_________________________________________________________________Finished run_model in 85.7908 secs


predict
{'self': <propythia_new.src.propythia.deep_ml.DeepML object at 0x7f4268033af0>, 'x_test': array([[[-0.120287, -0.046835,  0.166875, ..., -0.055662, -0.089143,
…
